2024-11-23 13:48:09,833 INFO: Training with a single process on 1 GPUs.
2024-11-23 13:48:12,311 INFO: Creating model sdt
===============================================================================================
Layer (type:depth-idx)                        Output Shape              Param #
===============================================================================================
SpikeDrivenTransformer                        [2, 1000]                 --
├─MS_SPS: 1-1                                 [4, 2, 768, 14, 14]       --
│    └─Conv2d: 2-1                            [8, 96, 224, 224]         2,592
│    └─BatchNorm2d: 2-2                       [8, 96, 224, 224]         192
│    └─MultiStepLIFNode: 2-3                  [4, 2, 96, 224, 224]      --
│    └─MaxPool2d: 2-4                         [8, 96, 112, 112]         --
│    └─Conv2d: 2-5                            [8, 192, 112, 112]        165,888
│    └─BatchNorm2d: 2-6                       [8, 192, 112, 112]        384
│    └─MultiStepLIFNode: 2-7                  [4, 2, 192, 112, 112]     --
│    └─MaxPool2d: 2-8                         [8, 192, 56, 56]          --
│    └─Conv2d: 2-9                            [8, 384, 56, 56]          663,552
│    └─BatchNorm2d: 2-10                      [8, 384, 56, 56]          768
│    └─MultiStepLIFNode: 2-11                 [4, 2, 384, 56, 56]       --
│    └─MaxPool2d: 2-12                        [8, 384, 28, 28]          --
│    └─Conv2d: 2-13                           [8, 768, 28, 28]          2,654,208
│    └─BatchNorm2d: 2-14                      [8, 768, 28, 28]          1,536
│    └─MaxPool2d: 2-15                        [8, 768, 14, 14]          --
│    └─MultiStepLIFNode: 2-16                 [4, 2, 768, 14, 14]       --
│    └─Conv2d: 2-17                           [8, 768, 14, 14]          5,308,416
│    └─BatchNorm2d: 2-18                      [8, 768, 14, 14]          1,536
├─ModuleList: 1-2                             --                        --
│    └─MS_Block_Conv: 2-19                    [4, 2, 768, 14, 14]       --
│    │    └─MS_SSA_Conv: 3-1                  [4, 2, 768, 14, 14]       2,366,272
│    │    └─MS_MLP_Conv: 3-2                  [4, 2, 768, 14, 14]       4,730,112
│    └─MS_Block_Conv: 2-20                    [4, 2, 768, 14, 14]       --
│    │    └─MS_SSA_Conv: 3-3                  [4, 2, 768, 14, 14]       2,366,272
│    │    └─MS_MLP_Conv: 3-4                  [4, 2, 768, 14, 14]       4,730,112
│    └─MS_Block_Conv: 2-21                    [4, 2, 768, 14, 14]       --
│    │    └─MS_SSA_Conv: 3-5                  [4, 2, 768, 14, 14]       2,366,272
│    │    └─MS_MLP_Conv: 3-6                  [4, 2, 768, 14, 14]       4,730,112
│    └─MS_Block_Conv: 2-22                    [4, 2, 768, 14, 14]       --
│    │    └─MS_SSA_Conv: 3-7                  [4, 2, 768, 14, 14]       2,366,272
│    │    └─MS_MLP_Conv: 3-8                  [4, 2, 768, 14, 14]       4,730,112
│    └─MS_Block_Conv: 2-23                    [4, 2, 768, 14, 14]       --
│    │    └─MS_SSA_Conv: 3-9                  [4, 2, 768, 14, 14]       2,366,272
│    │    └─MS_MLP_Conv: 3-10                 [4, 2, 768, 14, 14]       4,730,112
│    └─MS_Block_Conv: 2-24                    [4, 2, 768, 14, 14]       --
│    │    └─MS_SSA_Conv: 3-11                 [4, 2, 768, 14, 14]       2,366,272
│    │    └─MS_MLP_Conv: 3-12                 [4, 2, 768, 14, 14]       4,730,112
│    └─MS_Block_Conv: 2-25                    [4, 2, 768, 14, 14]       --
│    │    └─MS_SSA_Conv: 3-13                 [4, 2, 768, 14, 14]       2,366,272
│    │    └─MS_MLP_Conv: 3-14                 [4, 2, 768, 14, 14]       4,730,112
│    └─MS_Block_Conv: 2-26                    [4, 2, 768, 14, 14]       --
│    │    └─MS_SSA_Conv: 3-15                 [4, 2, 768, 14, 14]       2,366,272
│    │    └─MS_MLP_Conv: 3-16                 [4, 2, 768, 14, 14]       4,730,112
├─MultiStepLIFNode: 1-3                       [4, 2, 768]               --
├─Linear: 1-4                                 [4, 2, 1000]              769,000
===============================================================================================
Total params: 66,339,144
Trainable params: 66,339,144
Non-trainable params: 0
Total mult-adds (G): 148.15
===============================================================================================
Input size (MB): 1.20
Forward/backward pass size (MB): 2562.65
Params size (MB): 265.35
Estimated Total Size (MB): 2829.21
===============================================================================================
2024-11-23 13:48:17,549 INFO: ===============================================================================================
Layer (type:depth-idx)                        Output Shape              Param #
===============================================================================================
SpikeDrivenTransformer                        [2, 1000]                 --
├─MS_SPS: 1-1                                 [4, 2, 768, 14, 14]       --
│    └─Conv2d: 2-1                            [8, 96, 224, 224]         2,592
│    └─BatchNorm2d: 2-2                       [8, 96, 224, 224]         192
│    └─MultiStepLIFNode: 2-3                  [4, 2, 96, 224, 224]      --
│    └─MaxPool2d: 2-4                         [8, 96, 112, 112]         --
│    └─Conv2d: 2-5                            [8, 192, 112, 112]        165,888
│    └─BatchNorm2d: 2-6                       [8, 192, 112, 112]        384
│    └─MultiStepLIFNode: 2-7                  [4, 2, 192, 112, 112]     --
│    └─MaxPool2d: 2-8                         [8, 192, 56, 56]          --
│    └─Conv2d: 2-9                            [8, 384, 56, 56]          663,552
│    └─BatchNorm2d: 2-10                      [8, 384, 56, 56]          768
│    └─MultiStepLIFNode: 2-11                 [4, 2, 384, 56, 56]       --
│    └─MaxPool2d: 2-12                        [8, 384, 28, 28]          --
│    └─Conv2d: 2-13                           [8, 768, 28, 28]          2,654,208
│    └─BatchNorm2d: 2-14                      [8, 768, 28, 28]          1,536
│    └─MaxPool2d: 2-15                        [8, 768, 14, 14]          --
│    └─MultiStepLIFNode: 2-16                 [4, 2, 768, 14, 14]       --
│    └─Conv2d: 2-17                           [8, 768, 14, 14]          5,308,416
│    └─BatchNorm2d: 2-18                      [8, 768, 14, 14]          1,536
├─ModuleList: 1-2                             --                        --
│    └─MS_Block_Conv: 2-19                    [4, 2, 768, 14, 14]       --
│    │    └─MS_SSA_Conv: 3-1                  [4, 2, 768, 14, 14]       2,366,272
│    │    └─MS_MLP_Conv: 3-2                  [4, 2, 768, 14, 14]       4,730,112
│    └─MS_Block_Conv: 2-20                    [4, 2, 768, 14, 14]       --
│    │    └─MS_SSA_Conv: 3-3                  [4, 2, 768, 14, 14]       2,366,272
│    │    └─MS_MLP_Conv: 3-4                  [4, 2, 768, 14, 14]       4,730,112
│    └─MS_Block_Conv: 2-21                    [4, 2, 768, 14, 14]       --
│    │    └─MS_SSA_Conv: 3-5                  [4, 2, 768, 14, 14]       2,366,272
│    │    └─MS_MLP_Conv: 3-6                  [4, 2, 768, 14, 14]       4,730,112
│    └─MS_Block_Conv: 2-22                    [4, 2, 768, 14, 14]       --
│    │    └─MS_SSA_Conv: 3-7                  [4, 2, 768, 14, 14]       2,366,272
│    │    └─MS_MLP_Conv: 3-8                  [4, 2, 768, 14, 14]       4,730,112
│    └─MS_Block_Conv: 2-23                    [4, 2, 768, 14, 14]       --
│    │    └─MS_SSA_Conv: 3-9                  [4, 2, 768, 14, 14]       2,366,272
│    │    └─MS_MLP_Conv: 3-10                 [4, 2, 768, 14, 14]       4,730,112
│    └─MS_Block_Conv: 2-24                    [4, 2, 768, 14, 14]       --
│    │    └─MS_SSA_Conv: 3-11                 [4, 2, 768, 14, 14]       2,366,272
│    │    └─MS_MLP_Conv: 3-12                 [4, 2, 768, 14, 14]       4,730,112
│    └─MS_Block_Conv: 2-25                    [4, 2, 768, 14, 14]       --
│    │    └─MS_SSA_Conv: 3-13                 [4, 2, 768, 14, 14]       2,366,272
│    │    └─MS_MLP_Conv: 3-14                 [4, 2, 768, 14, 14]       4,730,112
│    └─MS_Block_Conv: 2-26                    [4, 2, 768, 14, 14]       --
│    │    └─MS_SSA_Conv: 3-15                 [4, 2, 768, 14, 14]       2,366,272
│    │    └─MS_MLP_Conv: 3-16                 [4, 2, 768, 14, 14]       4,730,112
├─MultiStepLIFNode: 1-3                       [4, 2, 768]               --
├─Linear: 1-4                                 [4, 2, 1000]              769,000
===============================================================================================
Total params: 66,339,144
Trainable params: 66,339,144
Non-trainable params: 0
Total mult-adds (G): 148.15
===============================================================================================
Input size (MB): 1.20
Forward/backward pass size (MB): 2562.65
Params size (MB): 265.35
Estimated Total Size (MB): 2829.21
…
